cross_platform_app/fake_news/assets/model.tflite (tflite, 724716 bytes, 1 tensors)

sequential_1/dense_1/MatMul f4 [1, 180859]
0	0xbac329e1	-0.00148898
1	0x3b2f086b	0.0026707898
2	0x3c84fc96	0.016233724
3	0xba33d9ba	-0.0006860752
4	0xb9d7311b	-0.00041044582
5	0x3d189c31	0.03725833
6	0xba7b21eb	-0.00095799443
7	0xba89351f	-0.0010468102
8	0xbb0b3d20	-0.002124615
9	0xba89351f	-0.0010468102
10	0xba89351f	-0.0010468102
11	0xba8980c4	-0.0010490646
12	0xba02167e	-0.0004962458
13	0xbb836d7f	-0.0040108557
14	0xb9cc3eaf	-0.00038956615
15	0xbb4e7a6e	-0.003150608
16	0xbb21451a	-0.0024607838
17	0xbba99de1	-0.0051762913
18	0xba287ebc	-0.00064275763
19	0xbb1efc13	-0.0024259135
20	0xba89351f	-0.0010468102
21	0xbad0a670	-0.0015918743
22	0xb98d0100	-0.0002689436
23	0xbb239b5c	-0.0024964428
24	0xbb4d7daf	-0.003135543
25	0xba400bee	-0.00073259964
26	0xba89351f	-0.0010468102
27	0xba3111d7	-0.00067546725
28	0xb9ad358c	-0.00033037027
29	0xba56488e	-0.00081742636
30	0xba28c288	-0.0006437679
31	0xbaf97e5c	-0.001903485
32	0xbaf97e5c	-0.001903485
33	0xba89351f	-0.0010468102
34	0xbba94ef7	-0.005166884
35	0xb9d0757c	-0.00039760384
36	0xbb84f062	-0.004056976
37	0xbb02c15b	-0.0019951675
38	0xb9ebe4bb	-0.0004499311
39	0xbae6cae8	-0.0017608078
40	0xba3ff5f5	-0.0007322722
41	0x3ca6b74b	0.020351073
42	0xbc5c61cd	-0.013451052
43	0xb9b3b6a8	-0.0003427763
44	0xb9b3b6a8	-0.0003427763
45	0x3cab294d	0.020893717
46	0x3f07a897	0.5299162
47	0x3cd59a8b	0.026074668
48	0xbc2f3036	-0.010692647
49	0x3daa9d2a	0.08330758
50	0xba76e982	-0.00094189506
51	0x3c365efa	0.011131043
52	0xba40d5b9	-0.0007356066
53	0x3a329e1f	0.0006813723
54	0xba40d5b9	-0.0007356066
55	0xba19be95	-0.0005864886
56	0x3c46b485	0.012128
57	0xbc89db2e	-0.016828146
58	0x3bbb9fcd	0.005725837
59	0x3d0187d1	0.031623665
60	0x3b24f562	0.0025170674
61	0xbb056e35	-0.0020359878
62	0xbb2d8209	-0.0026475212
63	0x3acf4039	0.0015811987
64	0x3d1cd396	0.03828772
65	0xbd1ad55d	-0.037801135
66	0x3e28026b	0.16407172
67	0x3c7338b2	0.01484506
68	0x3d47aa30	0.048746288
69	0x3c002dc9	0.007823416
70	0x3b9d28db	0.00479613
71	0xbb1f0dd0	-0.0024269708
72	0xbb5674bf	-0.0032723395
73	0x3c9000d6	0.017578524
74	0xba88c3b3	-0.00104343
75	0xba8ec61b	-0.001089278
76	0xbda6fba8	-0.08153468
77	0x3d20128f	0.0390802
78	0xbb9bd6cc	-0.0047558304
79	0xbbe6ddb5	-0.0070454725
80	0xba825019	-0.0009942084
81	0xbac81d41	-0.0015267507
82	0xbc672bf0	-0.014109597
83	0xba0e7092	-0.00054336444
84	0xbd79e61a	-0.061010458
85	0x3aeb25fb	0.0017940396
86	0xbb80190d	-0.0039092363
87	0x3c365efa	0.011131043
88	0x3b896395	0.0041927793
89	0xbe0510ba	-0.12994662
90	0xb9e75d0b	-0.00044129076
91	0x3d092358	0.033480972
92	0x3bf730df	0.0075436677
93	0xbd8cfae6	-0.068837926
94	0xbb5b4d6b	-0.0033462893
95	0x3d71ed6c	0.059064314
96	0xbc92bcae	-0.017912235
97	0x3b943d5c	0.004523916
98	0xbd09569d	-0.033529866
99	0x3e44f242	0.19233039
100	0x3c48cdef	0.01225613
101	0x3bc3823b	0.0059664524
102	0x3b7fe739	0.0039047732
103	0x3b3c6e22	0.0028752168
104	0xbdbc3c5a	-0.09191199
105	0xbdb01750	-0.085981965
106	0x3d7ef8e7	0.06224909
107	0xbba27268	-0.004957486
108	0xba9af470	-0.0011822116
109	0xbb2f66c0	-0.0026764125
110	0xbb87ea79	-0.0041478244
111	0xbe079f52	-0.1324437
112	0xbd435206	-0.047685646
113	0x3bc45fe8	0.005992878
114	0xba3199af	-0.0006774915
115	0xbb8cd9ea	-0.0042984383
116	0x3b08706b	0.002081896
117	0x3d076bda	0.03306184
118	0xbd5b55b6	-0.053548537
119	0xbd8175fd	-0.063213326
120	0x3c9ee0cb	0.019394299
121	0x3c45b0a4	0.01206604
122	0x3d2f5c7f	0.04281282
123	0xbd247d01	-0.040158276
124	0x3d3604c9	0.044438157
125	0x3cbbee44	0.022940762
126	0xbc79dc7f	-0.015250324
127	0xbd3c3c5a	-0.045955993
128	0xbb5b4d6b	-0.0033462893
129	0x3c28f82c	0.010313075
130	0x3ee5ff1d	0.44921198
131	0x3dc12873	0.09431543
132	0x3b63b790	0.0034746863
133	0x3bd008fa	0.0063487263
134	0x3d45aaaa	0.04825846
135	0x3d009bf4	0.03139873
136	0xbb85552f	-0.0040689926
137	0x3e272851	0.16323973
138	0x3a06e64c	0.0005146011
139	0x3ca99622	0.020701472
140	0xbaadfc18	-0.0013273982
141	0x3cab552e	0.02091464
142	0xbed7898e	-0.42097133
143	0xbcfa30fc	-0.030540936
144	0xbbfaaf50	-0.0076502934
145	0xbb556c30	-0.0032565705
146	0x3c811553	0.015757238
147	0xbb1765b1	-0.0023101384
148	0x3b0a9d6f	0.0021150967
149	0x3b13e0ce	0.0022564414
150	0xbb7b1716	-0.003831332
151	0xbcb34d37	-0.021887405
152	0x3cc9cfd7	0.024635239
153	0x3bfa9305	0.0076469206
154	0x3c1f85de	0.009736506
155	0xbda0ab10	-0.078451276
156	0xbae7af41	-0.0017676131
157	0xbf36679c	-0.71251845
158	0xbba5d7e4	-0.0050611366
159	0xb97ed933	-0.0002430424
160	0xbbeda6b7	-0.00725254
161	0xb9f2e586	-0.00046328845
162	0xbb5861f5	-0.0033017371
163	0xb9c94390	-0.00038388046
164	0xbadb4dfa	-0.0016731613
165	0xba1b33a6	-0.0005920477
166	0xbb297584	-0.0025857398
167	0xbd02c7fc	-0.031929
168	0xbbfaaf50	-0.0076502934
169	0xbb877137	-0.0041333693
170	0xbab3c685	-0.001371578
171	0xbd5f47a5	-0.054511685
172	0x3a5a416c	0.00083257887
173	0xbbf0f5dc	-0.0073535275
174	0xbc3fef41	-0.011714757
175	0xbb90ad82	-0.004415215
176	0xbbce72f5	-0.006300325
177	0xba4fd125	-0.00079275883
178	0xba9b60ae	-0.0011854374
179	0xbbc82b36	-0.006108667
180	0x3b1e7983	0.0024181313
181	0xbaa2bd81	-0.0012416096
182	0xbd91fc06	-0.07128148
183	0xb9e89e84	-0.00044368592
184	0xbbb19671	-0.0054195453
185	0x3e88f7d2	0.26751572
186	0xb98dcfdc	-0.00027048483
187	0xbe149477	-0.1450976
188	0xbc9e4236	-0.019318681
189	0xbc65c572	-0.014024125
190	0xbcbbba46	-0.02291597
191	0xbb1d8199	-0.0024033545
192	0xbb0e6785	-0.0021729183
193	0xbcb12845	-0.021625647
194	0xb9e75d0b	-0.00044129076
195	0x3c88ff12	0.01672319
196	0x3a4d44e5	0.00078303955
197	0x3d2e85da	0.04260812
198	0x3d365f2d	0.04452436
199	0xbc9aca06	-0.01889516
200	0x3e2de7bc	0.16982931
201	0x3c8c233d	0.017106647
202	0x3c153f1f	0.0091092875
203	0x3d035bb3	0.032069873
204	0x3ba608a5	0.0050669485
205	0x3ca189ae	0.019718971
206	0x3c14c5a4	0.009080324
207	0xbb6ace99	-0.0035828708
208	0xbc1485c9	-0.0090651
209	0xbd7de321	-0.061984185
210	0xbad612c1	-0.0016332493
211	0x3db1147e	0.08646487
212	0xbb2be7e2	-0.0026230742
213	0x3c54a3a5	0.012978469
214	0x3b02e827	0.00199748
215	0xbb945b74	-0.0045275036
216	0x3a9a8cd2	0.0011791235
217	0x3ca15e88	0.019698396
218	0xbda3628c	-0.07977781
219	0xbc1c2b6f	-0.00953184
220	0x3adeb6f5	0.0016991781
221	0x3bb22d21	0.0054375087
222	0x3a85baa2	0.0010202716
223	0xbb5b4d6b	-0.0033462893
224	0x3c982dba	0.018576492
225	0x3d007a9f	0.03136694
226	0x3db73ad9	0.08946771
227	0x3b84cbaa	0.004052599
228	0x3d2d7c2e	0.042354755
229	0x3d1bcfd7	0.03804001
230	0xbc11d25d	-0.008900252
231	0x3de19b43	0.11015942
232	0x3cbb5ff5	0.022872904
233	0x3aeb0d6e	0.001793308
234	0x3c86951b	0.01642852
235	0x3e1e1c1f	0.15440415
236	0xbced9a6f	-0.029004304
237	0x3d38c3d1	0.04510862
238	0xbc297198	-0.010342024
239	0x3c10a437	0.008828214
240	0xbc0710bf	-0.008243739
241	0xbb863a6f	-0.0040963213
242	0xbc5abb8c	-0.013350379
243	0x3c942bd0	0.018087298
244	0x3b8b1809	0.0042448086
245	0x3c30c5c6	0.01078934
246	0x3c386eec	0.011256915
247	0x3a4d44e5	0.00078303955
248	0xbdaaf691	-0.0834781
249	0x3c34d0a8	0.011036076
250	0xbd9eb2e6	-0.07748966
251	0xbcf3db1c	-0.029767565
252	0x3cf7fafc	0.030271046
253	0x3b61d381	0.0034458342
254	0x3e181263	0.14850764
255	0x3b72c5fc	0.0037044277
